…
et model\nin_channels = 3  # Number of input channels (e.g., RGB image)\nout_channels = 24  # Number of output channels (e.g., number of classes)\nunet_model = UNet(in_channels, out_channels)\n\n\n# Print the model architecture\nprint(unet_model)\n\n# Move the model to the device (e.g., GPU)\ndevice = torch.device(\"cuda\" if torch.cuda.is_available() else \"cpu\")\nunet_model = unet_model.to(device)\n\n# Define the loss function and optimizer\ncriterion = nn.CrossEntropyLoss()\noptimizer = torch.optim.Adam(unet_model.parameters(), lr=0.001)\n\n\n\nUNet(\n  (encoder_conv1): Sequential(\n    (0): Conv2d(3, 64, kernel_size=(3, 3), stride=(1, 1), padding=(1, 1))\n    (1): ReLU(inplace=True)\n    (2): Conv2d(64, 64, kernel_size=(3, 3), stride=(1, 1), padding=(1, 1))\n    (3): ReLU(inplace=True)\n  )\n  (encoder_pool1): MaxPool2d(kernel_size=2, stride=2, padding=0, dilation=1, ceil_mode=False)\n  (encoder_conv2): Sequential(\n    (0): Conv2d(64, 128, kernel_size=(3, 3), stride=(1, 1), padding=(1, 1))\n    (1): ReLU(inplace=True)\n    (2): Conv2d(128, 128, kernel_size=(3, 3), stride=(1, 1), padding=(1, 1))\n    (3): ReLU(inplace=True)\n  )\n  (encoder_pool2): MaxPool2d(kernel_size=2, stride=2, padding=0, dilation=1, ceil_mode=False)\n  (encoder_conv3): Sequential(\n    (0): Conv2d(128, 256, kernel_size=(3, 3), stride=(1, 1), padding=(1, 1))\n    (1): ReLU(inplace=True)\n    (2): Conv2d(256, 256, kernel_size=(3, 3), stride=(1, 1), padding=(1, 1))\n    (3): ReLU(inplace=True)\n  )\n  (encoder_pool3): MaxPool2d(kernel_size=2, stride=2, padding=0, dilation=1, ceil_mode=False)\n  (encoder_conv4): Sequential(\n    (0): Conv2d(256, 512, kernel_size=(3, 3), stride=(1, 1), padding=(1, 1))\n    (1): ReLU(inplace=True)\n    (2): Conv2d(512, 512, kernel_size=(3, 3), stride=(1, 1), padding=(1, 1))\n    (3): ReLU(inplace=True)\n  )\n  (encoder_pool4): MaxPool2d(kernel_size=2, stride=2, padding=0, dilation=1, ceil_mode=False)\n  (bottleneck_conv): Sequential(\n    (0): Conv2d(512, 1024, kernel_size=(3, 3), stride=(1, 1), padding=(1, 1))\n    (1): ReLU(inplace=True)\n    (2): Conv2d(1024, 1024, kernel_size=(3, 3), stride=(1, 1), padding=(1, 1))\n    (3): ReLU(inplace=True)\n  )\n  (decoder_upconv4): ConvTranspose2d(1024, 512, kernel_size=(2, 2), stride=(2, 2))\n  (decoder_conv4): Sequential(\n    (0): Conv2d(1024, 512, kernel_size=(3, 3), stride=(1, 1), padding=(1, 1))\n    (1): ReLU(inplace=True)\n    (2): Conv2d(512, 512, kernel_size=(3, 3), stride=(1, 1), padding=(1, 1))\n    (3): ReLU(inplace=True)\n  )\n  (decoder_upconv3): ConvTranspose2d(512, 256, kernel_size=(2, 2), stride=(2, 2))\n  (decoder_conv3): Sequential(\n    (0): Conv2d(512, 256, kernel_size=(3, 3), stride=(1, 1), padding=(1, 1))\n    (1): ReLU(inplace=True)\n    (2): Conv2d(256, 256, kernel_size=(3, 3), stride=(1, 1), padding=(1, 1))\n    (3): ReLU(inplace=True)\n  )\n  (decoder_upconv2): ConvTranspose2d(256, 128, kernel_size=(2, 2), stride=(2, 2))\n  (decoder_conv2): Sequential(\n    (0): Conv2d(256, 128, kernel_size=(3, 3), stride=(1, 1), padding=(1, 1))\n    (1): ReLU(inplace=True)\n    (2): Conv2d(128, 128, kernel_size=(3, 3), stride=(1, 1), padding=(1, 1))\n    (3): ReLU(inplace=True)\n  )\n  (decoder_upconv1): ConvTranspose2d(128, 64, kernel_size=(2, 2), stride=(2, 2))\n  (decoder_conv1): Sequential(\n    (0): Conv2d(128, 64, kernel_size=(3, 3), stride=(1, 1), padding=(1, 1))\n    (1): ReLU(inplace=True)\n    (2): Conv2d(64, 64, kernel_size=(3, 3), stride=(1, 1), padding=(1, 1))\n    (3): ReLU(inplace=True)\n  )\n  (output_conv): Conv2d(64, 24, kernel_size=(1, 1), stride=(1, 1))\n)\n\n\n\nnum_epochs = 20\nbest_loss = float('inf')\nbest_model_state_dict = None\n\nfor epoch in range(num_epochs):\n    unet_model.train()\n    total_loss = 0.0\n\n    for i, sample in enumerate(train_loader):\n        inputs = sample['img'].to(device)\n        labels = sample['label'].to(device)\n        optimizer.zero_grad()\n        outputs = unet_mo
…
